…
I0316 04:45:22.398350   413 solver.cpp:87] Creating training net from net file: examples/siamese/mnist_siamese_train_test.prototxt
I0316 04:45:22.400079   413 net.cpp:294] The NetState phase (0) differed from the phase (1) specified by a rule in layer pair_data
I0316 04:45:22.401500   413 net.cpp:51] Initializing net from parameters: 
name: "mnist_siamese_train_test"
state {
  phase: TRAIN
  level: 0
  stage: ""
}
layer {
  name: "pair_data"
  type: "Data"
  top: "pair_data"
  top: "sim"
  include {
    phase: TRAIN
  }
  transform_param {
    scale: 0.00390625
  }
  data_param {
    source: "examples/siamese/mnist_siamese_train_leveldb"
    batch_size: 64
  }
}
layer {
  name: "slice_pair"
  type: "Slice"
  bottom: "pair_data"
  top: "data"
  top: "data_p"
  slice_param {
    slice_dim: 1
    slice_point: 1
  }
}
layer {
  name: "conv1"
  type: "Convolution"
  bottom: "data"
  top: "conv1"
  param {
    name: "conv1_w"
    lr_mult: 1
  }
  param {
    name: "conv1_b"
    lr_mult: 2
  }
  convolution_param {
    num_output: 20
    kernel_size: 5
    stride: 1
    weight_filler {
      type: "xavier"
    }
    bias_filler {
      type: "constant"
    }
  }
}
layer {
  name: "pool1"
  type: "Pooling"
  bottom: "conv1"
  top: "pool1"
  pooling_param {
    pool: MAX
    kernel_size: 2
    stride: 2
  }
}
layer {
  name: "conv2"
  type: "Convolution"
  bottom: "pool1"
  top: "conv2"
  param {
    name: "conv2_w"
    lr_mult: 1
  }
  param {
    name: "conv2_b"
    lr_mult: 2
  }
  convolution_param {
    num_output: 50
    kernel_size: 5
    stride: 1
    weight_filler {
      type: "xavier"
    }
    bias_filler {
      type: "constant"
    }
  }
}
layer {
  name: "pool2"
  type: "Pooling"
  bottom: "conv2"
  top: "pool2"
  pooling_param {
    pool: MAX
    kernel_size: 2
    stride: 2
  }
}
layer {
  name: "ip1"
  type: "InnerProduct"
  bottom: "pool2"
  top: "ip1"
  param {
    name: "ip1_w"
    lr_mult: 1
  }
  param {
    name: "ip1_b"
    lr_mult: 2
  }
  inner_product_param {
    num_output: 500
    weight_filler {
      type: "xavier"
    }
    bias_filler {
      type: "constant"
    }
  }
}
layer {
  name: "relu1"
  type: "ReLU"
  bottom: "ip1"
  top: "ip1"
}
layer {
  name: "ip2"
  type: "InnerProduct"
  bottom: "ip1"
  top: "ip2"
  param {
    name: "ip2_w"
    lr_mult: 1
  }
  param {
    name: "ip2_b"
    lr_mult: 2
  }
  inner_product_param {
    num_output: 10
    weight_filler {
      type: "xavier"
    }
    bias_filler {
      type: "constant"
    }
  }
}
layer {
  name: "feat"
  type: "InnerProduct"
  bottom: "ip2"
  top: "feat"
  param {
    name: "feat_w"
    lr_mult: 1
  }
  param {
    name: "feat_b"
    lr_mult: 2
  }
  inner_product_param {
    num_output: 2
    weight_filler {
      type: "xavier"
    }
    bias_filler {
      type: "constant"
    }
  }
}
layer {
  name: "conv1_p"
  type: "Convolution"
  bottom: "data_p"
  top: "conv1_p"
  param {
    name: "conv1_w"
    lr_mult: 1
  }
  param {
    name: "conv1_b"
    lr_mult: 2
  }
  convolution_param {
    num_output: 20
    kernel_size: 5
    stride: 1
    weight_filler {
      type: "xavier"
    }
    bias_filler {
      type: "constant"
    }
  }
}
layer {
  name: "pool1_p"
  type: "Pooling"
  bottom: "conv1_p"
  top: "pool1_p"
  pooling_param {
    pool: MAX
    kernel_size: 2
    stride: 2
  }
}
layer {
  name: "conv2_p"
  type: "Convolution"
  bottom: "pool1_p"
  top: "conv2_p"
  param {
    name: "conv2_w"
    lr_mult: 1
  }
  param {
    name: "conv2_b"
    lr_mult: 2
  }
  convolution_param {
    num_output: 50
    kernel_size: 5
    stride: 1
    weight_filler {
      type: "xavier"
    }
    bias_filler {
      type: "constant"
    }
  }
}
layer {
  name: "pool2_p"
  type: "Pooling"
  bottom: "conv2_p"
  top: "pool2_p"
  pooling_param {
    pool: MAX
    kernel_size: 2
    stride: 2
  }
}
layer {
  name: "ip1_p"
  type: "InnerProduct"
  bottom: "pool2_p"
  top: "ip1_p"
  param {
    name: "ip1_w"
    lr_mult: 1
  }
  param {
    name: "ip1_b"
    lr_mult: 2
  }
  inner_product_param {
    num_output: 500
    weight_filler {
      type: "xavier"
    }
    bias_filler {
      type: "constant"
    }
  }
}
layer {
  name: "relu1_p"
  type: "ReLU"
  bottom: "ip1_p"
  top: "ip1_p"
}
layer {
  name: "ip2_p"
  type: "InnerProduct"
  bottom: "ip1_p"
  top: "ip2_p"
  param {
    name: "ip2_w"
    lr_mult: 1
  }
  param {
    name: "ip2_b"
    lr_mult: 2
  }
  inner_product_param {
    num_output: 10
    weight_filler {
      type: "xavier"
    }
    bias_filler {
      type: "constant"
    }
  }
}
layer {
  name: "feat_p"
  type: "InnerProduct"
  bottom: "ip2_p"
  top: "feat_p"
  param {
    name: "feat_w"
    lr_mult: 1
  }
  param {
    name: "feat_b"
    lr_mult: 2
  }
  inner_product_param {
    num_output: 2
    weight_filler {
      type: "xavier"
    }
    bias_filler {
      type: "constant"
    }
  }
}
layer {
  name: "loss"
  type: "ContrastiveLoss"
  bottom: "feat"
  bottom: "feat_p"
  bottom: "sim"
  top: "loss"
  contrastive_loss_param {
    margin: 1
  }
}
I0316 04:45:22.401804   413 layer_factory.hpp:77] Creating layer pair_data
I0316 04:45:22.490337   413 db_leveldb.cpp:18] Opened leveldb examples/siamese/mnist_siamese_train_leveldb
I0316 04:45:22.493439   413 net.cpp:84] Creating Layer pair_data
I0316 04:45:22.493502   413 net.cpp:380] pair_data -> pair_data
I0316 04:45:22.493566   413 net.cpp:380] pair_data -> sim
I0316 04:45:22.493652   413 data_layer.cpp:45] output data size: 64,2,28,28
I0316 04:45:22.494540   413 net.cpp:122] Setting up pair_data
I0316 04:45:22.494596   413 net.cpp:129] Top shape: 64 2 28 28 (100352)
I0316 04:45:22.494609   413 net.cpp:129] Top shape: 64 (64)
I0316 04:45:22.494616   413 net.cpp:137] Memory required for data: 401664
I0316 04:45:22.494637   413 layer_factory.hpp:77] Creating layer slice_pair
I0316 04:45:22.494662   413 net.cpp:84] Creating Layer slice_pair
I0316 04:45:22.494676   413 net.cpp:406] slice_pair <- pair_data
I0316 04:45:22.494699   413 net.cpp:380] slice_pair -> data
I0316 04:45:22.494750   413 net.cpp:380] slice_pair -> data_p
I0316 04:45:22.494778   413 net.cpp:122] Setting up slice_pair
I0316 04:45:22.494827   413 net.cpp:129] Top shape: 64 1 28 28 (50176)
I0316 04:45:22.494839   413 net.cpp:129] Top shape: 64 1 28 28 (50176)
I0316 04:45:22.494900   413 net.cpp:137] Memory required for data: 803072
I0316 04:45:22.494928   413 layer_factory.hpp:77] Creating layer conv1
I0316 04:45:22.495028   413 net.cpp:84] Creating Layer conv1
I0316 04:45:22.495079   413 net.cpp:406] conv1 <- data
I0316 04:45:22.495107   413 net.cpp:380] conv1 -> conv1
I0316 04:45:22.495208   413 net.cpp:122] Setting up conv1
I0316 04:45:22.495245   413 net.cpp:129] Top shape: 64 20 24 24 (737280)
I0316 04:45:22.495252   413 net.cpp:137] Memory required for data: 3752192
I0316 04:45:22.495272   413 layer_factory.hpp:77] Creating layer pool1
I0316 04:45:22.495283   413 net.cpp:84] Creating Layer pool1
I0316 04:45:22.495291   413 net.cpp:406] pool1 <- conv1
I0316 04:45:22.495301   413 net.cpp:380] pool1 -> pool1
I0316 04:45:22.495429   413 net.cpp:122] Setting up pool1
I0316 04:45:22.495450   413 net.cpp:129] Top shape: 64 20 12 12 (184320)
I0316 04:45:22.495460   413 net.cpp:137] Memory required for data: 4489472
I0316 04:45:22.495468   413 layer_factory.hpp:77] Creating layer conv2
I0316 04:45:22.495491   413 net.cpp:84] Creating Layer conv2
I0316 04:45:22.495538   413 net.cpp:406] conv2 <- pool1
I0316 04:45:22.495566   413 net.cpp:380] conv2 -> conv2
I0316 04:45:22.496089   413 net.cpp:122] Setting up conv2
I0316 04:45:22.496167   413 net.cpp:129] Top shape: 64 50 8 8 (204800)
I0316 04:45:22.496193   413 net.cpp:137] Memory required for data: 5308672
I0316 04:45:22.496258   413 layer_factory.hpp:77] Creating layer pool2
I0316 04:45:22.496379   413 net.cpp:84] Creating Layer pool2
I0316 04:45:22.496395   413 net.cpp:406] pool2 <- conv2
I0316 04:45:22.496418   413 net.cpp:380] pool2 -> pool2
I0316 04:45:22.496450   413 net.cpp:122] Setting up pool2
I0316 04:45:22.496893   413 net.cpp:129] Top shape: 64 50 4 4 (51200)
I0316 04:45:22.496919   413 net.cpp:137] Memory required for data: 5513472
I0316 04:45:22.497257   413 layer_factory.hpp:77] Creating layer ip1
I0316 04:45:22.497380   413 net.cpp:84] Creating Layer ip1
I0316 04:45:22.497540   413 net.cpp:406] ip1 <- pool2
I0316 04:45:22.497599   413 net.cpp:380] ip1 -> ip1
I0316 04:45:22.505764   413 net.cpp:122] Setting up ip1
I0316 04:45:22.505826   413 net.cpp:129] Top shape: 64 500 (32000)
I0316 04:45:22.505846   413 net.cpp:137] Memory required for data: 5641472
I0316 04:45:22.505878   413 layer_factory.hpp:77] Creating layer relu1
I0316 04:45:22.505986   413 net.cpp:84] Creating Layer relu1
I0316 04:45:22.505998   413 net.cpp:406] relu1 <- ip1
I0316 04:45:22.506009   413 net.cpp:367] relu1 -> ip1 (in-place)
I0316 04:45:22.506099   413 net.cpp:122] Setting up relu1
I0316 04:45:22.509409   413 net.cpp:129] Top shape: 64 500 (32000)
I0316 04:45:22.509438   413 net.cpp:137] Memory required for data: 5769472
I0316 04:45:22.509454   413 layer_factory.hpp:77] Creating layer ip2
I0316 04:45:22.509485   413 net.cpp:84] Creating Layer ip2
I0316 04:45:22.510035   413 net.cpp:406] ip2 <- ip1
I0316 04:45:22.511034   413 net.cpp:380] ip2 -> ip2
I0316 04:45:22.511602   413 net.cpp:122] Setting up ip2
I0316 04:45:22.511632   413 net.cpp:129] Top shape: 64 10 (640)
I0316 04:45:22.511775   413 net.cpp:137] Memory required for data: 5772032
I0316 04:45:22.511812   413 layer_factory.hpp:77] Creating layer feat
I0316 04:45:22.512030   413 net.cpp:84] Creating Layer feat
I0316 04:45:22.512220   413 net.cpp:406] feat <- ip2
I0316 04:45:22.512264   413 net.cpp:380] feat -> feat
I0316 04:45:22.512306   413 net.cpp:122] Setting up feat
I0316 04:45:22.512409   413 net.cpp:129] Top shape: 64 2 (128)
I0316 04:45:22.512615   413 net.cpp:137] Memory required for data: 5772544
I0316 04:45:22.512653   413 layer_factory.hpp:77] Creating layer conv1_p
I0316 04:45:22.512694   413 net.cpp:84] Creating Layer conv1_p
I0316 04:45:22.512709   413 net.cpp:406] conv1_p <- data_p
I0316 04:45:22.512734   413 net.cpp:380] conv1_p -> conv1_p
I0316 04:45:22.512832   413 net.cpp:122] Setting up conv1_p
I0316 04:45:22.512866   413 net.cpp:129] Top shape: 64 20 24 24 (737280)
I0316 04:45:22.513020   413 net.cpp:137] Memory required for data: 8721664
I0316 04:45:22.513046   413 net.cpp:465] Sharing parameters 'conv1_w' owned by layer 'conv1', param index 0
I0316 04:45:22.513067   413 net.cpp:465] Sharing parameters 'conv1_b' owned by layer 'conv1', param index 1
I0316 04:45:22.513101   413 layer_factory.hpp:77] Creating layer pool1_p
I0316 04:45:22.513129   413 net.cpp:84] Creating Layer pool1_p
I0316 04:45:22.513145   413 net.cpp:406] pool1_p <- conv1_p
I0316 04:45:22.513166   413 net.cpp:380] pool1_p -> pool1_p
I0316 04:45:22.513207   413 net.cpp:122] Setting up pool1_p
I0316 04:45:22.513229   413 net.cpp:129] Top shape: 64 20 12 12 (184320)
I0316 04:45:22.513242   413 net.cpp:137] Memory required for data: 9458944
I0316 04:45:22.513255   413 layer_factory.hpp:77] Creating layer conv2_p
I0316 04:45:22.513280   413 net.cpp:84] Creating Layer conv2_p
I0316 04:45:22.513295   413 net.cpp:406] conv2_p <- pool1_p
I0316 04:45:22.513316   413 net.cpp:380] conv2_p -> conv2_p
I0316 04:45:22.513742   413 net.cpp:122] Setting up conv2_p
I0316 04:45:22.514309   413 net.cpp:129] Top shape: 64 50 8 8 (204800)
I0316 04:45:22.514326   413 net.cpp:137] Memory required for data: 10278144
I0316 04:45:22.514356   413 net.cpp:465] Sharing parameters 'conv2_w' owned by layer 'conv2', param index 0
I0316 04:45:22.514374   413 net.cpp:465] Sharing parameters 'conv2_b' owned by layer 'conv2', param index 1
I0316 04:45:22.514391   413 layer_factory.hpp:77] Creating layer pool2_p
I0316 04:45:22.514413   413 net.cpp:84] Creating Layer pool2_p
I0316 04:45:22.514428   413 net.cpp:406] pool2_p <- conv2_p
I0316 04:45:22.514497   413 net.cpp:380] pool2_p -> pool2_p
I0316 04:45:22.514533   413 net.cpp:122] Setting up pool2_p
I0316 04:45:22.514555   413 net.cpp:129] Top shape: 64 50 4 4 (51200)
I0316 04:45:22.514569   413 net.cpp:137] Memory required for data: 10482944
I0316 04:45:22.514585   413 layer_factory.hpp:77] Creating layer ip1_p
I0316 04:45:22.514607   413 net.cpp:84] Creating Layer ip1_p
I0316 04:45:22.514622   413 net.cpp:406] ip1_p <- pool2_p
I0316 04:45:22.514643   413 net.cpp:380] ip1_p -> ip1_p
I0316 04:45:22.522469   413 net.cpp:122] Setting up ip1_p
I0316 04:45:22.522584   413 net.cpp:129] Top shape: 64 500 (32000)
I0316 04:45:22.522603   413 net.cpp:137] Memory required for data: 10610944
I0316 04:45:22.522665   413 net.cpp:465] Sharing parameters 'ip1_w' owned by layer 'ip1', param index 0
I0316 04:45:22.522711   413 net.cpp:465] Sharing parameters 'ip1_b' owned by layer 'ip1', param index 1
I0316 04:45:22.522722   413 layer_factory.hpp:77] Creating layer relu1_p
I0316 04:45:22.522738   413 net.cpp:84] Creating Layer relu1_p
I0316 04:45:22.522748   413 net.cpp:406] relu1_p <- ip1_p
I0316 04:45:22.522763   413 net.cpp:367] relu1_p -> ip1_p (in-place)
I0316 04:45:22.522780   413 net.cpp:122] Setting up relu1_p
I0316 04:45:22.522791   413 net.cpp:129] Top shape: 64 500 (32000)
I0316 04:45:22.522799   413 net.cpp:137] Memory required for data: 10738944
I0316 04:45:22.522810   413 layer_factory.hpp:77] Creating layer ip2_p
I0316 04:45:22.522833   413 net.cpp:84] Creating Layer ip2_p
I0316 04:45:22.522843   413 net.cpp:406] ip2_p <- ip1_p
I0316 04:45:22.522857   413 net.cpp:380] ip2_p -> ip2_p
I0316 04:45:22.522971   413 net.cpp:122] Setting up ip2_p
I0316 04:45:22.522992   413 net.cpp:129] Top shape: 64 10 (640)
I0316 04:45:22.523000   413 net.cpp:137] Memory required for data: 10741504
I0316 04:45:22.523015   413 net.cpp:465] Sharing parameters 'ip2_w' owned by layer 'ip2', param index 0
I0316 04:45:22.523025   413 net.cpp:465] Sharing parameters 'ip2_b' owned by layer 'ip2', param index 1
I0316 04:45:22.523034   413 layer_factory.hpp:77] Creating layer feat_p
I0316 04:45:22.523051   413 net.cpp:84] Creating Layer feat_p
I0316 04:45:22.523061   413 net.cpp:406] feat_p <- ip2_p
I0316 04:45:22.523077   413 net.cpp:380] feat_p -> feat_p
I0316 04:45:22.523110   413 net.cpp:122] Setting up feat_p
I0316 04:45:22.523130   413 net.cpp:129] Top shape: 64 2 (128)
I0316 04:45:22.523139   413 net.cpp:137] Memory required for data: 10742016
I0316 04:45:22.523149   413 net.cpp:465] Sharing parameters 'feat_w' owned by layer 'feat', param index 0
I0316 04:45:22.523159   413 net.cpp:465] Sharing parameters 'feat_b' owned by layer 'feat', param index 1
I0316 04:45:22.523169   413 layer_factory.hpp:77] Creating layer loss
I0316 04:45:22.523229   413 net.cpp:84] Creating Layer loss
…
I0316 04:45:22.524940   413 solver.cpp:172] Creating test net (#0) specified by net file: examples/siamese/mnist_siamese_train_test.prototxt
I0316 04:45:22.525112   413 net.cpp:294] The NetState phase (1) differed from the phase (0) specified by a rule in layer pair_data
I0316 04:45:22.525790   413 net.cpp:51] Initializing net from parameters: 
name: "mnist_siamese_train_test"
state {
  phase: TEST
}
layer {
  name: "pair_data"
  type: "Data"
  top: "pair_data"
  top: "sim"
  include {
    phase: TEST
  }
  transform_param {
    scale: 0.00390625
  }
  data_param {
    source: "examples/siamese/mnist_siamese_test_leveldb"
    batch_size: 100
  }
}
layer {
  name: "slice_pair"
  type: "Slice"
  bottom: "pair_data"
  top: "data"
  top: "data_p"
  slice_param {
    slice_dim: 1
    slice_point: 1
  }
}
layer {
  name: "conv1"
  type: "Convolution"
  bottom: "data"
  top: "conv1"
  param {
    name: "conv1_w"
    lr_mult: 1
  }
  param {
    name: "conv1_b"
    lr_mult: 2
  }
  convolution_param {
    num_output: 20
    kernel_size: 5
    stride: 1
    weight_filler {
      type: "xavier"
    }
    bias_filler {
      type: "constant"
    }
  }
}
layer {
  name: "pool1"
  type: "Pooling"
  bottom: "conv1"
  top: "pool1"
  pooling_param {
    pool: MAX
    kernel_size: 2
    stride: 2
  }
}
layer {
  name: "conv2"
  type: "Convolution"
  bottom: "pool1"
  top: "conv2"
  param {
    name: "conv2_w"
    lr_mult: 1
  }
  param {
    name: "conv2_b"
    lr_mult: 2
  }
  convolution_param {
    num_output: 50
    kernel_size: 5
    stride: 1
    weight_filler {
      type: "xavier"
    }
    bias_filler {
      type: "constant"
    }
  }
}
layer {
  name: "pool2"
  type: "Pooling"
  bottom: "conv2"
  top: "pool2"
  pooling_param {
    pool: MAX
    kernel_size: 2
    stride: 2
  }
}
layer {
  name: "ip1"
  type: "InnerProduct"
  bottom: "pool2"
  top: "ip1"
  param {
    name: "ip1_w"
    lr_mult: 1
  }
  param {
    name: "ip1_b"
    lr_mult: 2
  }
  inner_product_param {
    num_output: 500
    weight_filler {
      type: "xavier"
    }
    bias_filler {
      type: "constant"
    }
  }
}
layer {
  name: "relu1"
  type: "ReLU"
  bottom: "ip1"
  top: "ip1"
}
layer {
  name: "ip2"
  type: "InnerProduct"
  bottom: "ip1"
  top: "ip2"
  param {
    name: "ip2_w"
    lr_mult: 1
  }
  param {
    name: "ip2_b"
    lr_mult: 2
  }
  inner_product_param {
    num_output: 10
    weight_filler {
      type: "xavier"
    }
    bias_filler {
      type: "constant"
    }
  }
}
layer {
  name: "feat"
  type: "InnerProduct"
  bottom: "ip2"
  top: "feat"
  param {
    name: "feat_w"
    lr_mult: 1
  }
  param {
    name: "feat_b"
    lr_mult: 2
  }
  inner_product_param {
    num_output: 2
    weight_filler {
      type: "xavier"
    }
    bias_filler {
      type: "constant"
    }
  }
}
layer {
  name: "conv1_p"
  type: "Convolution"
  bottom: "data_p"
  top: "conv1_p"
  param {
    name: "conv1_w"
    lr_mult: 1
  }
  param {
    name: "conv1_b"
    lr_mult: 2
  }
  convolution_param {
    num_output: 20
    kernel_size: 5
    stride: 1
    weight_filler {
      type: "xavier"
    }
    bias_filler {
      type: "constant"
    }
  }
}
layer {
  name: "pool1_p"
  type: "Pooling"
  bottom: "conv1_p"
  top: "pool1_p"
  pooling_param {
    pool: MAX
    kernel_size: 2
    stride: 2
  }
}
layer {
  name: "conv2_p"
  type: "Convolution"
  bottom: "pool1_p"
  top: "conv2_p"
  param {
    name: "conv2_w"
    lr_mult: 1
  }
  param {
    name: "conv2_b"
    lr_mult: 2
  }
  convolution_param {
    num_output: 50
    kernel_size: 5
    stride: 1
    weight_filler {
      type: "xavier"
    }
    bias_filler {
      type: "constant"
    }
  }
}
layer {
  name: "pool2_p"
  type: "Pooling"
  bottom: "conv2_p"
  top: "pool2_p"
  pooling_param {
    pool: MAX
    kernel_size: 2
    stride: 2
  }
}
layer {
  name: "ip1_p"
  type: "InnerProduct"
  bottom: "pool2_p"
  top: "ip1_p"
  param {
    name: "ip1_w"
    lr_mult: 1
  }
  param {
    name: "ip1_b"
    lr_mult: 2
  }
  inner_product_param {
    num_output: 500
    weight_filler {
      type: "xavier"
    }
    bias_filler {
      type: "constant"
    }
  }
}
layer {
  name: "relu1_p"
  type: "ReLU"
  bottom: "ip1_p"
  top: "ip1_p"
}
layer {
  name: "ip2_p"
  type: "InnerProduct"
  bottom: "ip1_p"
  top: "ip2_p"
  param {
    name: "ip2_w"
    lr_mult: 1
  }
  param {
    name: "ip2_b"
    lr_mult: 2
  }
  inner_product_param {
    num_output: 10
    weight_filler {
      type: "xavier"
    }
    bias_filler {
      type: "constant"
    }
  }
}
layer {
  name: "feat_p"
  type: "InnerProduct"
  bottom: "ip2_p"
  top: "feat_p"
  param {
    name: "feat_w"
    lr_mult: 1
  }
  param {
    name: "feat_b"
    lr_mult: 2
  }
  inner_product_param {
    num_output: 2
    weight_filler {
      type: "xavier"
    }
    bias_filler {
      type: "constant"
    }
  }
}
layer {
  name: "loss"
  type: "ContrastiveLoss"
  bottom: "feat"
  bottom: "feat_p"
  bottom: "sim"
  top: "loss"
  contrastive_loss_param {
    margin: 1
  }
}
I0316 04:45:22.525985   413 layer_factory.hpp:77] Creating layer pair_data
I0316 04:45:22.627555   413 db_leveldb.cpp:18] Opened leveldb examples/siamese/mnist_siamese_test_leveldb
I0316 04:45:22.631101   413 net.cpp:84] Creating Layer pair_data
I0316 04:45:22.631162   413 net.cpp:380] pair_data -> pair_data
I0316 04:45:22.631193   413 net.cpp:380] pair_data -> sim
I0316 04:45:22.632042   413 data_layer.cpp:45] output data size: 100,2,28,28
I0316 04:45:22.633131   413 net.cpp:122] Setting up pair_data
I0316 04:45:22.633236   413 net.cpp:129] Top shape: 100 2 28 28 (156800)
I0316 04:45:22.633265   413 net.cpp:129] Top shape: 100 (100)
I0316 04:45:22.633278   413 net.cpp:137] Memory required for data: 627600
I0316 04:45:22.633519   413 layer_factory.hpp:77] Creating layer slice_pair
I0316 04:45:22.633600   413 net.cpp:84] Creating Layer slice_pair
I0316 04:45:22.633625   413 net.cpp:406] slice_pair <- pair_data
I0316 04:45:22.633935   413 net.cpp:380] slice_pair -> data
I0316 04:45:22.633977   413 net.cpp:380] slice_pair -> data_p
I0316 04:45:22.634219   413 net.cpp:122] Setting up slice_pair
I0316 04:45:22.634428   413 net.cpp:129] Top shape: 100 1 28 28 (78400)
I0316 04:45:22.634450   413 net.cpp:129] Top shape: 100 1 28 28 (78400)
I0316 04:45:22.634845   413 net.cpp:137] Memory required for data: 1254800
I0316 04:45:22.634899   413 layer_factory.hpp:77] Creating layer conv1
I0316 04:45:22.635109   413 net.cpp:84] Creating Layer conv1
I0316 04:45:22.635267   413 net.cpp:406] conv1 <- data
I0316 04:45:22.635314   413 net.cpp:380] conv1 -> conv1
I0316 04:45:22.635416   413 net.cpp:122] Setting up conv1
I0316 04:45:22.635455   413 net.cpp:129] Top shape: 100 20 24 24 (1152000)
I0316 04:45:22.635469   413 net.cpp:137] Memory required for data: 5862800
I0316 04:45:22.635499   413 layer_factory.hpp:77] Creating layer pool1
I0316 04:45:22.635527   413 net.cpp:84] Creating Layer pool1
I0316 04:45:22.635546   413 net.cpp:406] pool1 <- conv1
I0316 04:45:22.635571   413 net.cpp:380] pool1 -> pool1
I0316 04:45:22.635605   413 net.cpp:122] Setting up pool1
I0316 04:45:22.635627   413 net.cpp:129] Top shape: 100 20 12 12 (288000)
I0316 04:45:22.635643   413 net.cpp:137] Memory required for data: 7014800
I0316 04:45:22.635663   413 layer_factory.hpp:77] Creating layer conv2
I0316 04:45:22.635728   413 net.cpp:84] Creating Layer conv2
I0316 04:45:22.635929   413 net.cpp:406] conv2 <- pool1
I0316 04:45:22.635977   413 net.cpp:380] conv2 -> conv2
I0316 04:45:22.636885   413 net.cpp:122] Setting up conv2
I0316 04:45:22.636945   413 net.cpp:129] Top shape: 100 50 8 8 (320000)
I0316 04:45:22.636965   413 net.cpp:137] Memory required for data: 8294800
I0316 04:45:22.637001   413 layer_factory.hpp:77] Creating layer pool2
I0316 04:45:22.637049   413 net.cpp:84] Creating Layer pool2
I0316 04:45:22.637084   413 net.cpp:406] pool2 <- conv2
I0316 04:45:22.637131   413 net.cpp:380] pool2 -> pool2
I0316 04:45:22.637184   413 net.cpp:122] Setting up pool2
I0316 04:45:22.637212   413 net.cpp:129] Top shape: 100 50 4 4 (80000)
I0316 04:45:22.637228   413 net.cpp:137] Memory required for data: 8614800
I0316 04:45:22.637238   413 layer_factory.hpp:77] Creating layer ip1
I0316 04:45:22.637259   413 net.cpp:84] Creating Layer ip1
I0316 04:45:22.637833   413 net.cpp:406] ip1 <- pool2
I0316 04:45:22.637874   413 net.cpp:380] ip1 -> ip1
I0316 04:45:22.652480   413 net.cpp:122] Setting up ip1
I0316 04:45:22.652586   413 net.cpp:129] Top shape: 100 500 (50000)
I0316 04:45:22.652601   413 net.cpp:137] Memory required for data: 8814800
I0316 04:45:22.652628   413 layer_factory.hpp:77] Creating layer relu1
I0316 04:45:22.652644   413 net.cpp:84] Creating Layer relu1
I0316 04:45:22.652653   413 net.cpp:406] relu1 <- ip1
I0316 04:45:22.652665   413 net.cpp:367] relu1 -> ip1 (in-place)
I0316 04:45:22.652681   413 net.cpp:122] Setting up relu1
I0316 04:45:22.652691   413 net.cpp:129] Top shape: 100 500 (50000)
I0316 04:45:22.652698   413 net.cpp:137] Memory required for data: 9014800
I0316 04:45:22.652705   413 layer_factory.hpp:77] Creating layer ip2
I0316 04:45:22.652721   413 net.cpp:84] Creating Layer ip2
I0316 04:45:22.652729   413 net.cpp:406] ip2 <- ip1
I0316 04:45:22.652740   413 net.cpp:380] ip2 -> ip2
I0316 04:45:22.657824   413 net.cpp:122] Setting up ip2
I0316 04:45:22.657943   413 net.cpp:129] Top shape: 100 10 (1000)
I0316 04:45:22.658099   413 net.cpp:137] Memory required for data: 9018800
I0316 04:45:22.658283   413 layer_factory.hpp:77] Creating layer feat
I0316 04:45:22.658371   413 net.cpp:84] Creating Layer feat
I0316 04:45:22.658419   413 net.cpp:406] feat <- ip2
I0316 04:45:22.658447   413 net.cpp:380] feat -> feat
I0316 04:45:22.658506   413 net.cpp:122] Setting up feat
I0316 04:45:22.658525   413 net.cpp:129] Top shape: 100 2 (200)
I0316 04:45:22.658536   413 net.cpp:137] Memory required for data: 9019600
I0316 04:45:22.658565   413 layer_factory.hpp:77] Creating layer conv1_p
I0316 04:45:22.658596   413 net.cpp:84] Creating Layer conv1_p
I0316 04:45:22.658610   413 net.cpp:406] conv1_p <- data_p
I0316 04:45:22.658630   413 net.cpp:380] conv1_p -> conv1_p
I0316 04:45:22.658699   413 net.cpp:122] Setting up conv1_p
I0316 04:45:22.658722   413 net.cpp:129] Top shape: 100 20 24 24 (1152000)
I0316 04:45:22.658735   413 net.cpp:137] Memory required for data: 13627600
I0316 04:45:22.658749   413 net.cpp:465] Sharing parameters 'conv1_w' owned by layer 'conv1', param index 0
I0316 04:45:22.658764   413 net.cpp:465] Sharing parameters 'conv1_b' owned by layer 'conv1', param index 1
I0316 04:45:22.658779   413 layer_factory.hpp:77] Creating layer pool1_p
I0316 04:45:22.658799   413 net.cpp:84] Creating Layer pool1_p
I0316 04:45:22.658810   413 net.cpp:406] pool1_p <- conv1_p
I0316 04:45:22.658828   413 net.cpp:380] pool1_p -> pool1_p
I0316 04:45:22.658855   413 net.cpp:122] Setting up pool1_p
I0316 04:45:22.658871   413 net.cpp:129] Top shape: 100 20 12 12 (288000)
I0316 04:45:22.658885   413 net.cpp:137] Memory required for data: 14779600
I0316 04:45:22.658898   413 layer_factory.hpp:77] Creating layer conv2_p
I0316 04:45:22.658929   413 net.cpp:84] Creating Layer conv2_p
I0316 04:45:22.659003   413 net.cpp:406] conv2_p <- pool1_p
I0316 04:45:22.659070   413 net.cpp:380] conv2_p -> conv2_p
I0316 04:45:22.663640   413 net.cpp:122] Setting up conv2_p
I0316 04:45:22.663687   413 net.cpp:129] Top shape: 100 50 8 8 (320000)
I0316 04:45:22.663697   413 net.cpp:137] Memory required for data: 16059600
I0316 04:45:22.663919   413 net.cpp:465] Sharing parameters 'conv2_w' owned by layer 'conv2', param index 0
I0316 04:45:22.663938   413 net.cpp:465] Sharing parameters 'conv2_b' owned by layer 'conv2', param index 1
I0316 04:45:22.663945   413 layer_factory.hpp:77] Creating layer pool2_p
I0316 04:45:22.663962   413 net.cpp:84] Creating Layer pool2_p
I0316 04:45:22.663971   413 net.cpp:406] pool2_p <- conv2_p
I0316 04:45:22.663985   413 net.cpp:380] pool2_p -> pool2_p
I0316 04:45:22.664007   413 net.cpp:122] Setting up pool2_p
I0316 04:45:22.664019   413 net.cpp:129] Top shape: 100 50 4 4 (80000)
I0316 04:45:22.664026   413 net.cpp:137] Memory required for data: 16379600
I0316 04:45:22.664033   413 layer_factory.hpp:77] Creating layer ip1_p
I0316 04:45:22.664047   413 net.cpp:84] Creating Layer ip1_p
I0316 04:45:22.664054   413 net.cpp:406] ip1_p <- pool2_p
I0316 04:45:22.664067   413 net.cpp:380] ip1_p -> ip1_p
I0316 04:45:22.675467   413 net.cpp:122] Setting up ip1_p
I0316 04:45:22.675545   413 net.cpp:129] Top shape: 100 500 (50000)
I0316 04:45:22.675566   413 net.cpp:137] Memory required for data: 16579600
I0316 04:45:22.675590   413 net.cpp:465] Sharing parameters 'ip1_w' owned by layer 'ip1', param index 0
I0316 04:45:22.675607   413 net.cpp:465] Sharing parameters 'ip1_b' owned by layer 'ip1', param index 1
I0316 04:45:22.675751   413 layer_factory.hpp:77] Creating layer relu1_p
I0316 04:45:22.675786   413 net.cpp:84] Creating Layer relu1_p
I0316 04:45:22.675802   413 net.cpp:406] relu1_p <- ip1_p
I0316 04:45:22.675830   413 net.cpp:367] relu1_p -> ip1_p (in-place)
I0316 04:45:22.675858   413 net.cpp:122] Setting up relu1_p
I0316 04:45:22.675871   413 net.cpp:129] Top shape: 100 500 (50000)
I0316 04:45:22.675880   413 net.cpp:137] Memory required for data: 16779600
I0316 04:45:22.675890   413 layer_factory.hpp:77] Creating layer ip2_p
I0316 04:45:22.675915   413 net.cpp:84] Creating Layer ip2_p
I0316 04:45:22.675925   413 net.cpp:406] ip2_p <- ip1_p
I0316 04:45:22.675940   413 net.cpp:380] ip2_p -> ip2_p
I0316 04:45:22.676077   413 net.cpp:122] Setting up ip2_p
I0316 04:45:22.676102   413 net.cpp:129] Top shape: 100 10 (1000)
I0316 04:45:22.676117   413 net.cpp:137] Memory required for data: 16783600
I0316 04:45:22.676146   413 net.cpp:465] Sharing parameters 'ip2_w' owned by layer 'ip2', param index 0
I0316 04:45:22.676170   413 net.cpp:465] Sharing parameters 'ip2_b' owned by layer 'ip2', param index 1
I0316 04:45:22.676183   413 layer_factory.hpp:77] Creating layer feat_p
I0316 04:45:22.676201   413 net.cpp:84] Creating Layer feat_p
I0316 04:45:22.676213   413 net.cpp:406] feat_p <- ip2_p
I0316 04:45:22.676232   413 net.cpp:380] feat_p -> feat_p
I0316 04:45:22.676268   413 net.cpp:122] Setting up feat_p
I0316 04:45:22.676283   413 net.cpp:129] Top shape: 100 2 (200)
I0316 04:45:22.676293   413 net.cpp:137] Memory required for data: 16784400
I0316 04:45:22.676306   413 net.cpp:465] Sharing parameters 'feat_w' owned by layer 'feat', param index 0
I0316 04:45:22.676318   413 net.cpp:465] Sharing parameters 'feat_b' owned by layer 'feat', param index 1
I0316 04:45:22.676338   413 layer_factory.hpp:77] Creating layer loss
I0316 04:45:22.676368   413 net.cpp:84] Creating Layer loss
…
